[{"total_time": {"seconds": 5502, "microseconds": 632036}, "model_info": {"laptime_model": "RNN_regression_v1(\n  (fc_1): Sequential(\n    (0): Linear(in_features=126, out_features=50, bias=True)\n    (1): ReLU()\n  )\n  (rnn): RNN(50, 25, batch_first=True)\n  (fc_n): Sequential(\n    (0): Linear(in_features=25, out_features=10, bias=True)\n    (1): ReLU()\n    (2): Linear(in_features=10, out_features=1, bias=True)\n  )\n)", "position_model": "RNN_MC_v1(\n  (fc_1): Sequential(\n    (0): Linear(in_features=126, out_features=50, bias=True)\n    (1): ReLU()\n  )\n  (rnn): RNN(50, 25, batch_first=True)\n  (fc_n): Sequential(\n    (0): Linear(in_features=25, out_features=10, bias=True)\n    (1): ReLU()\n    (2): Linear(in_features=10, out_features=20, bias=True)\n  )\n)"}, "hyperparameters": {"laptime_criterion": "MSELoss()", "position_criterion": "CrossEntropyLoss()", "laptime_optimiser": "Adam (\nParameter Group 0\n    amsgrad: False\n    betas: (0.9, 0.999)\n    capturable: False\n    differentiable: False\n    eps: 1e-08\n    foreach: None\n    fused: None\n    initial_lr: 0.01\n    lr: 9.5367431640625e-09\n
…
"microseconds": 295111}, {"seconds": 28, "microseconds": 246336}, {"seconds": 24, "microseconds": 266871}, {"seconds": 28, "microseconds": 292114}, {"seconds": 28, "microseconds": 220023}, {"seconds": 28, "microseconds": 155084}, {"seconds": 24, "microseconds": 314863}, {"seconds": 28, "microseconds": 316775}]}, "device": "cuda", "data_info": {"train_size": 1895, "val_size": 667, "X shape": [32, 2, 126], "laptime shape": [32], "postion shape": [32, 20]}}, {"total_time": {"seconds": 5330, "microseconds": 867754}, "model_info": {"laptime_model": "RNN_regression_v1(\n  (fc_1): Sequential(\n    (0): Linear(in_features=126, out_features=30, bias=True)\n    (1): ReLU()\n  )\n  (rnn): RNN(30, 10, batch_first=True)\n  (fc_n): Sequential(\n    (0): Linear(in_features=10, out_features=10, bias=True)\n    (1): ReLU()\n    (2): Linear(in_features=10, out_features=1, bias=True)\n  )\n)", "position_model": "RNN_MC_v1(\n  (fc_1): Sequential(\n    (0): Linear(in_features=126, out_features=30, bias=True)\n    (1): ReLU()\n  )\n  (rnn): RNN(30, 10, batch_first=True)\n  (fc_n): Sequential(\n    (0): Linear(in_features=10, out_features=10, bias=True)\n    (1): ReLU()\n    (2): Linear(in_features=10, out_features=20, bias=True)\n  )\n)"}, "hyperparameters": {"laptime_criterion": "MSELoss()", "position_criterion": "CrossEntropyLoss()", "laptime_optimiser": "Adam (\nParameter Group 0\n    amsgrad: False\n    betas: (0.9, 0.999)\n    capturable: False\n    differentiable: False\n    eps: 1e-08\n    foreach: None\n    fused: None\n    initial_lr: 0.01\n    lr: 9.5367431640625e-09\n
…
